mnist_model_v2.pth (torch, 831429 bytes, 8 tensors)

conv1.weight f4 [16, 1, 3, 3]
0	0x3ea1729f	0.3153276
1	0x3ec05096	0.37561482
2	0xbeebd955	-0.4606425
3	0x3ed3814c	0.41309583
4	0xbe1ac880	-0.15115547
5	0xbf1d6967	-0.61488956
6	0x3f1c3d5f	0.61031145
7	0xbe41097f	-0.18851279
8	0xbf0958fc	-0.53651404
9	0x3e200324	0.15626198
10	0x3efec835	0.4976212
11	0x3ebb19a2	0.36542994
12	0xbe877acf	-0.26460883
13	0x3ecca2ea	0.39968044
14	0x3e8b0a83	0.27156457
15	0x3d91fd35	0.071283735
16	0x3c9f33db	0.019433906
17	0x3de2bc0d	0.11071024
18	0xbebd245f	-0.3694181
19	0x3e301f12	0.17199352
20	0x3dcafdbd	0.09911678
21	0x3e9b019c	0.30274665
22	0x3e0b8ae3	0.136272
23	0xbd368b4a	-0.04456643
24	0x3eaea436	0.34109658
25	0x3ea902d1	0.3300996
26	0x3db93dc8	0.09044987
27	0x3ea76f44	0.32702076
28	0x3ee1f687	0.44133398
29	0x3e814a7b	0.25252137
30	0xbd1527c7	-0.036414888
31	0x3ecb09da	0.39655954
32	0x3e457d92	0.19286183
33	0x3e8902a4	0.26759827
34	0xbde92da5	-0.11385659
35	0x3ed82358	0.42214465
36	0x3eaf4aaf	0.34236667
37	0x3e9871ba	0.29774266
38	0x3ea8d42e	0.3297438
39	0x3d225269	0.039629374
40	0x3ede62bf	0.43434712
41	0xbe1bc3ff	-0.15211485
42	0xbf10047b	-0.56256837
43	0xbee081c9	-0.43849018
44	0xbec50a49	-0.3848441
45	0xbe599fa2	-0.21252301
46	0x3e8a8635	0.27055517
47	0x3eab3ad9	0.33443335
48	0x3e47348b	0.19453637
49	0x3e532e29	0.20623077
50	0x3d3ff798	0.046866983
51	0x3ebd2c76	0.36947984
52	0x3d9058bc	0.07048175
53	0xbec8b368	-0.39199376
54	0xbf17d606	-0.5931095
55	0xbf1078b0	-0.56434155
56	0x3eadadad	0.33921567
57	0xbf12c0c0	-0.57325363
58	0xbd944da7	-0.072413735
59	0x3ebb3aa1	0.36568168
60	0x3e263c83	0.16234021
61	0x3f1f3c2c	0.6220119
62	0x3f020f8b	0.50804967
63	0xbee50208	-0.44728112
64	0xbed038e7	-0.40668413
65	0xbed9aac1	-0.42513087
66	0x3eaac8ba	0.33356267
67	0xbe19b589	-0.15010656
68	0x3ebdb1aa	0.3704961
69	0x3f1a35de	0.60238445
70	0x3c940dd2	0.018072996
71	0x3dbb98f5	0.091600336
72	0xbe2de328	-0.16981184
73	0x3da1f8ce	0.07908784
74	0xbe52730e	-0.20551702
75	0x3eafaf87	0.34313604
76	0x3ed6e29d	0.41969767
77	0x3e75143d	0.23933502
78	0xbd6ee424	-0.05832304
79	0xbd9fef46	-0.0780931
80	0x3ebc9752	0.36834198
81	0x3ea32739	0.31865862
82	0xbeeb8ec6	-0.46007365
83	0xbf19d185	-0.60085326
84	0x3f2bf040	0.6716347
85	0xbdf1071d	-0.11768935
86	0x3e156187	0.14587985
87	0x3ee23d51	0.44187406
88	0x3e4384e8	0.19093668
89	0xbc9e5c5d	-0.019331152
90	0x3e26d5f6	0.16292557
91	0x3eb3ed0c	0.3514179
92	0x3e9de852	0.3084131
93	0x3ef3e2c2	0.4763394
94	0x3ed5afec	0.4173578
95	0xbdba36ad	-0.0909246
96	0x3db6c322	0.089239374
97	0x3d84a105	0.064760245
98	0xbe9a2fb1	-0.3011451
99	0xbea68eb2	-0.32530743
100	0x3d377a56	0.044794403
101	0xbe398af8	-0.18119419
102	0xbe49d4b0	-0.1971004
103	0xbe96f1fe	-0.294815
104	0xbd74fcab	-0.059811275
105	0x3d9ecfdb	0.07754489
106	0xbdcb7686	-0.09934716
107	0xbd50a400	-0.050937653
108	0x3d9ccd63	0.07656362
109	0x3e0143d3	0.12623529
110	0x3eedae33	0.46421966
111	0x3e96eb29	0.29476288
112	0x3cebd15a	0.02878635
113	0xbd89d5a5	-0.067302026
114	0x3ed81f82	0.4221154
115	0xbe906690	-0.2820325
116	0xbf0b915e	-0.5451869
117	0x3efb8fcd	0.4913315
118	0xbd91dc16	-0.07122056
119	0xbc82f1ca	-0.015984435
120	0x3e6f4073	0.23364429
121	0x3efc2c8b	0.49252734
122	0x3df5eb5e	0.12007783
123	0x3ea8381f	0.32855317
124	0x3ee9db68	0.45675206
125	0xbe824a47	-0.25447294
126	0xbeecb460	-0.46231365
127	0xbe858cc9	-0.26083973
128	0xbd683eae	-0.0567004
129	0x3e2afd78	0.16698253
130	0xbecee560	-0.40409374
131	0xbe6f1db2	-0.23351172
132	0x3ef91726	0.48650473
133	0x3f0356bc	0.5130422
134	0x3c7cda24	0.015432868
135	0x3edf5b17	0.43624184
136	0xbc06b2ee	-0.008221371
137	0x3ef00706	0.46880358
138	0xbe6e44cf	-0.23268436
139	0x3eb468f3	0.3523632
140	0x3f04d48a	0.5188681
141	0xbf4ebfd5	-0.8076146
142	0xbf050736	-0.5196413
143	0x3e6f7a25	0.23386438

conv1.bias f4 [16]
0	0x3e896514	0.2683493
1	0xbd570b71	-0.052501146
2	0xbd280759	-0.041022632
3	0xbd92a1e4	-0.071597844
4	0x3d45eed7	0.04832348
5	0xbd57e8eb	-0.052712362
6	0xbb956e05	-0.0045602345
7	0x3c137f74	0.009002555
8	0x3e580882	0.21096995
9	0xbb516628	-0.003195176
10	0xbd02e487	-0.031956222
11	0xbe80212a	-0.25025302
12	0x3dc8d4f1	0.0980624
13	0xbe15221d	-0.14563794
14	0x3e37ff2f	0.17968439
15	0xbc9898a3	-0.01862747

conv2.weight f4 [32, 16, 3, 3]
0	0xbd471e0b	-0.048612636
1	0x3db09234	0.08621636
2	0x3cd69f63	0.026199048
3	0xbb1c2e62	-0.0023831357
4	0x3d82641e	0.06366752
5	0x3e0af46d	0.13569804
6	0xbdfd72a9	-0.12375385
7	0x3ccb00f5	0.02478073
8	0x3ba2554e	0.004954017
9	0xbd739b83	-0.05947448
10	0xbdb9b650	-0.090679765
11	0xbcb7a40a	-0.022417087
12	0x3dd9491f	0.1060965
13	0x3d737bea	0.059444346
14	0xbe2d8687	-0.1694585
15	0xbc6a2e1c	-0.01429322
16	0x3d0a5e45	0.03378131
17	0xbd7cab07	-0.061686542
18	0xbd4c72ba	-0.0499141
19	0xbd2c6691	-0.042090002
20	0xbd92b87c	-0.07164094
21	0xbab795ea	-0.001400647
22	0xbe06c766	-0.13162002
23	0x3c076368	0.008263446
24	0xbe3acffd	-0.18243404
25	0x3c4a3e36	0.012343934
26	0x3d4ed7a4	0.05049862
27	0x3ca56e98	0.020194337
28	0xbcd90843	-0.026493197
29	0xbe17bb1c	-0.1481747
30	0x3d8d73ec	0.06906876
31	0xbcad2bf3	-0.02113912
32	0xbc8edecd	-0.017440224
33	0xbd1150a5	-0.0354773
34	0x3d512ecb	0.051070016
35	0x3d753967	0.059869196
36	0xbdd54c49	-0.10414941
37	0xbe9c8e2e	-0.30577224
38	0xbb511330	-0.0031902306
39	0xbb382762	-0.0028099646
40	0xbd0dbde1	-0.03460491
41	0xbe8fa04f	-0.28051993
42	0xbbf474d4	-0.007460216
43	0xbd7610e1	-0.06007469
44	0x3dbad460	0.091225386
45	0xbdcf196e	-0.10112272
46	0x3d4d97c1	0.050193552
47	0x3da23788	0.07920748
48	0xbb845440	-0.0040383637
49	0xbc246ab9	-0.01003521
50	0xbdbc4693	-0.091931485
51	0x3c1a1df3	0.0094065545
52	0x3d10644e	0.035251908
53	0x3d3ab23f	0.045580145
54	0x3d820627	0.0634883
55	0x3ced1612	0.028941188
56	0x3c8452a5	0.01615269
57	0x3d510e34	0.051038936
58	0xbe6570ad	-0.22406264
59	0xbc7846b1	-0.015153573
60	0xbd0b6dd8	-0.034040302
61	0x3cc3d613	0.02390579
62	0xbcd0fc9c	-0.025511079
63	0x3e42156e	0.18953487
64	0x3d9139a1	0.0709107
65	0xbdea34d4	-0.114358574
66	0x3e08df15	0.13366349
67	0xbe27f59a	-0.16402283
68	0x3e38c404	0.18043524
69	0xbdba6253	-0.09100785
70	0x3d171f70	0.036895216
71	0x3df1da0c	0.11809167
72	0xbd0d18f6	-0.034447633
73	0xbda4c7da	-0.08045931
74	0xbda1630a	-0.07880218
75	0xbc8e793f	-0.017391799
76	0xbd595360	-0.05305803
77	0xbdfa0266	-0.12207489
78	0xbd546796	-0.0518566
79	0x3c872b81	0.016500236
80	0xbda4884e	-0.080338106
81	0x3ddfcc6a	0.10927661
82	0x3d73aea6	0.05949273
83	0xbc2f6983	-0.010706308
84	0x3dd908c1	0.10597373
85	0x3d891ec9	0.06695325
86	0x3e650866	0.22366485
87	0xbd7724b8	-0.060337752
88	0x3d01e852	0.0317157
89	0x3de23b2c	0.110464424
90	0xbde18715	-0.11012093
91	0x3d773e23	0.060361993
92	0xbd3ae0f9	-0.045624707
93	0x3ae92acf	0.0017789247
94	0xbcceadca	-0.025229353
95	0xbd19a83f	-0.037513968
96	0x3b42d035	0.0029726152
97	0xbd3e71bd	-0.046495188
98	0x3d5c8863	0.053841006
99	0xbd636748	-0.05551842
100	0x3b92d940	0.0044814646
101	0x3d951720	0.07279801
102	0xbd9d186f	-0.07670676
103	0x3d8905e0	0.06690574
104	0x3d1554b0	0.036457717
105	0x3d9733d0	0.07382929
106	0x3bc93600	0.0061404705
107	0xbda1dc18	-0.07903308
108	0xbd8559cf	-0.0651127
109	0x3d4af654	0.049551323
110	0x3d659dbb	0.056058627
111	0x3d96721a	0.07345982
112	0xbdbc5fee	-0.09197985
113	0xbd415a34	-0.047205165
114	0xbdc0a747	-0.094069056
115	0x3d1beaf6	0.038065873
116	0x3dba0938	0.090837896
117	0xbccf9a2d	-0.025342071
118	0x3dcbec09	0.099571295
119	0x3cfbe48a	0.030748624
120	0xbde3c74d	-0.11121998
121	0xbcbc6661	-0.022998037
122	0x3d3fdba6	0.046840332
123	0xbe462240	-0.19349003
124	0xbd43b02d	-0.047775436
125	0x3e1bb13c	0.15204328
126	0x3e3446c4	0.1760512
127	0x3e3e34f1	0.18574883
128	0x3ce211fd	0.027596468
129	0x3cc50d71	0.02405426
130	0x3ce674ab	0.028131803
131	0x3d8ca9e7	0.06868344
132	0xbd5a427c	-0.05328606
133	0x3cf34070	0.029693812
134	0x3dca6ab1	0.09883631
135	0x3e45731c	0.19282192
136	0xbd527136	-0.051377498
137	0xbdc11cac	-0.09429297
138	0x3e3c95c0	0.184165
139	0x3e564384	0.20924193
140	0xbe50d1a7	-0.20392476
141	0x3d9df35c	0.07712433
142	0x3d9af497	0.07566183
143	0x3d3d8d55	0.046277363
144	0xbc8252fa	-0.015908707
145	0xbe1d9b29	-0.1539122
146	0xbdbfd77f	-0.093672745
147	0xba973126	-0.0011535033
148	0xbd90d366	-0.07071571
149	0xbcd902ea	-0.026490647
150	0x3dd5a9c0	0.10432768
151	0x3d930bc7	0.07179981
152	0xbe338b60	-0.17533636
153	0x3d8a5f45	0.067564525
154	0x3e00c7ae	0.12576172
155	0x3dff68ee	0.124711856
156	0x3d06907f	0.032852646
157	0x3d41a35c	0.047274932
158	0x3de3d820	0.11125207
159	0xbd87d305	-0.06632046
160	0x3c0b663c	0.008508261
161	0x3dd06e0f	0.10177242
162	0x3d6d22ea	0.057894625
163	0xbdc65cb9	-0.09685654
164	0xbd866050	-0.06561339
165	0xbdc36250	-0.09540236
166	0xbdf8ab2b	-0.12142023
167	0x3dcec366	0.10095863
168	0x3cdfc80b	0.027317068
169	0xbd99b786	-0.075057074
170	0xbcb321db	-0.02186673
171	0x3dcb82dc	0.09937069
172	0x3dfa8770	0.12232864
173	0x3dd92619	0.1060297
174	0x3d928404	0.07154086
175	0xbcfbd0b3	-0.030739164
176	0x3e02a8c1	0.12759687
177	0xbd899ab7	-0.06718963
178	0x3d8589fd	0.0652046
179	0x3e506397	0.2035049
180	0x3da250d3	0.07925572
181	0xbdf071a4	-0.11740425
182	0xbdd1a3f3	-0.10236349
183	0xbdb1f78b	-0.08689793
184	0xbe6a93d6	-0.22907957
185	0xbe716928	-0.2357527
186	0x3de7f1df	0.1132543
187	0xbd48ec49	-0.049053464
188	0x3de83393	0.11337962
189	0x3c0645ff	0.008195399
190	0xbd458aec	-0.04822819
191	0x3d2874a5	0.041126866
192	0xbcdc60ea	-0.026901681
193	0xbc4d009b	-0.012512351
194	0xbb4d119b	-0.0031291011
195	0xbcf1b124	-0.029503413
196	0x3b158967	0.0022817494
197	0xbc935b64	-0.017987914
198	0xbe1783c3	-0.14796357
199	0xbe4428bb	-0.19156162
200	0xbe8a5d0a	-0.27024108
201	0xbe260767	-0.16213761
202	0x3d429a3c	0.04751037
203	0xbe3a9913	-0.18222456
204	0xbcb144fd	-0.021639341
205	0xbdcc2037	-0.09967082
206	0xbdce8bf2	-0.10085286
207	0xbd4758d8	-0.048668712
208	0xbe40eeea	-0.18841138
209	0x3d4f259f	0.050572988
210	0xbeb53797	-0.35393974
211	0xbecd4837	-0.40094158
212	0xbe790d54	-0.2432149
213	0xbde8a188	-0.11358935
214	0xbeba4b61	-0.36385635
215	0xbe99f882	-0.3007241
216	0xbd15ceda	-0.036574222
217	0x3d5bb3d9	0.053638313
218	0x3d94b180	0.07260418
219	0x3cddd9a9	0.027081328
220	0x3be8619a	0.007091713
221	0x3d8c4d1d	0.06850646
222	0xbddd7177	-0.10812657
223	0xbe03dd2f	-0.12877344
224	0x3daa6119	0.08319301
225	0x3ce2671f	0.027637063
226	0xbe1fe746	-0.15615568
227	0x3e25560e	0.16146109
228	0xbb6a77a1	-0.003577687
229	0xbe5b2088	-0.21399128
230	0x3e42b0a6	0.19012699
231	0xbdeabd0e	-0.114618406
232	0xbd3d063b	-0.04614852
233	0xbd6b7179	-0.057481263
234	0x3dffe3ac	0.12494597
235	0x3c8d5657	0.017253084
236	0x3d4a28c9	0.049355302
237	0xbc3da40a	-0.0115747545
238	0xbe012934	-0.12613374
239	0xbd1f3d9a	-0.038877107
240	0xbcdfe3b3	-0.027330255
241	0xbda3cdae	-0.07998215
242	0x3e203b8f	0.1564772
243	0x3d6d1d6b	0.057889383
244	0xbd865d33	-0.06560745
245	0xbd38ebfe	-0.045146935
246	0x3d2f94a8	0.04286638
247	0xbcaead80	-0.021322966
248	0x3ced68eb	0.028980693
249	0xbd5efbf8	-0.054439515
250	0xbd7834c3	-0.060597192
251	0x3d19f95b	0.03759132
252	0x3caf3e08	0.021391883
253	0x3caff2b5	0.021478036
254	0x38fc78a3	0.00012038767
255	0x3bada2cf	0.0052989493

conv2.bias f4 [32]
0	0xbdb8345e	-0.08994363
1	0xbda96464	-0.08271101
2	0x3ce31ec6	0.027724635
3	0xbe0ad546	-0.1355792
4	0xbd92a289	-0.07159907
5	0xbd898585	-0.0671492
6	0x3b748d28	0.003731558
7	0xbe31f924	-0.17380196
8	0xbdfc19f4	-0.12309638
9	0xbe3848f2	-0.17996576
10	0xbd96f2e7	-0.07370549
11	0x3cad1c89	0.02113177
12	0xbe13c3a8	-0.14430106
13	0xbd762ea5	-0.060103077
14	0xbe2d41a7	-0.16919576
15	0x3d238ff4	0.039932206
16	0xbcbed40e	-0.023294475
17	0xbdf2b275	-0.11850444
18	0x3cbc4b4e	0.022985127
19	0xbd9c72f6	-0.076391146
20	0xbcc909f3	-0.024540877
21	0xbd1bebcd	-0.038066674
22	0x3d4f0891	0.05054528
23	0xbe075f53	-0.13219957
24	0xbcd54dd2	-0.026038084
25	0xbdfe8b02	-0.124288574
26	0xbd964d76	-0.07338993
27	0x3db06a64	0.086140424
28	0xbd9218f5	-0.071336664
29	0xbb36ec84	-0.002791197
30	0xbb71ab5a	-0.0036875815
31	0x3c8e3ee4	0.017363973

fc1.weight f4 [128, 1568]
0	0x3c49b62b	0.012311499
1	0xbcb73028	-0.02236183
2	0x3ca31dc0	0.019911647
3	0xbc9048bf	-0.017612813
4	0xbce582f5	-0.028016547
5	0xbd126a95	-0.035746176
6	0xbbba2ba0	-0.00568147
7	0xbbbd9943	-0.0057860925
8	0xbc87c29f	-0.016572295
9	0xbcc2c3af	-0.02377495
10	0xbcc3b143	-0.023888236
11	0xbbacb7c7	-0.0052709314
12	0xbd052643	-0.032507192
13	0xbbfea2a6	-0.007770854
14	0x3b514cbb	0.0031936604
15	0x3c9102c0	0.017701507
16	0xbb828729	-0.0039833975
17	0x3c741741	0.014898122
18	0x3c6771b9	0.014126235
19	0xbd4424e3	-0.04788674
20	0xbc95f352	-0.0183045
21	0xbc960dae	-0.01831707
22	0xbc9c64f7	-0.019091113
23	0x3b96eae6	0.004605639
24	0x3b33a75c	0.0027412986
25	0xbcb2ffb0	-0.021850437
26	0xbd1f459a	-0.038884737
27	0x3c9332dc	0.017968588
28	0xbc5a7672	-0.013333904
29	0xbc7f7de4	-0.0155939795
30	0xbd25fa34	-0.040521815
31	0xbc4cc9e7	-0.012499309
32	0x3c589bd7	0.013220749
33	0xbc385532	-0.011250781
34	0x3bda831c	0.0066684615
35	0x3c5278fa	0.012846226
36	0xbb1196c0	-0.0022215098
37	0x3c22279e	0.009897141
38	0x3c23b7e6	0.009992575
39	0x3caeaecd	0.021323586
40	0x3c9d647c	0.019212954
41	0xbc8a41b6	-0.016877037
42	0xbc59abed	-0.013285619
43	0xbaf07de2	-0.0018348063
44	0xbca0ee32	-0.01964483
45	0x3c2cb8ce	0.010542108
46	0xbb2d6537	-0.0026458034
47	0xbc8d3380	-0.017236471
48	0xbc2860d6	-0.010276994
49	0xbcb0b406	-0.021570217
50	0xbd200f5b	-0.039077144
51	0xbc0ca0cf	-0.008583262
52	0xbc8210ad	-0.015877092
53	0xbcc2d934	-0.023785211
54	0x3bfdf048	0.007749591
55	0x3ac4fc61	0.0015028828
56	0xbc5f940f	-0.01364614
57	0x3c661051	0.014041976
58	0x3c33b823	0.010969195
59	0x3c54feb5	0.01300018
60	0x3c05c4f1	0.00816463
61	0x3c171f4a	0.0092237685
62	0x3b980c83	0.0046401634
63	0x3c8ef701	0.017451765
64	0xbc99974d	-0.018748904
65	0x3c1dde32	0.009635495
66	0xbc1cd4d9	-0.009572231
67	0xb998da65	-0.00029154416
68	0xbbad65fe	-0.0052916994
69	0xbc74d343	-0.014942947
70	0xbc869cf9	-0.016432272
71	0xbc96ba46	-0.018399369
72	0x3c92a792	0.01790217
73	0xbc7236d6	-0.014783582
74	0xbc135d93	-0.008994478
75	0xbc92d509	-0.017923849
76	0xbc74422c	-0.014908355
77	0xbd0afba4	-0.03393139
78	0xbc66ee15	-0.014094849
79	0xbc7cfe92	-0.015441554
80	0xbc6087b6	-0.013704231
81	0xbc41ab7c	-0.01182067
82	0x3bf4e253	0.007473269
83	0xbce88293	-0.028382575
84	0xb8ba7d18	-8.892472e-05
85	0xbc280eac	-0.010257404
86	0xbca8e57f	-0.020617245
87	0x3c89ac87	0.0168059
88	0x3adc17b3	0.0016791731
89	0x3c17cd90	0.0092653185
90	0xbb5013ab	-0.0031750004
91	0xbc721ce2	-0.014777394
92	0x3b40ebd6	0.0029437444
93	0xbca1a28b	-0.019730827
94	0xbc8251cc	-0.015908144
95	0x3c098c4b	0.008395265
96	0x3c1c906b	0.009555916
97	0xbc14d9b7	-0.00908511
98	0x3bcb097d	0.0061961995
99	0x3b93b7b3	0.0045079826
100	0x3aa01c19	0.0012215405
101	0x3ca25432	0.019815538
102	0x3c8cc0ce	0.01718178
103	0xbc524303	-0.01283336
104	0xbb9929cf	-0.0046741734
105	0x3c16ac28	0.009196319
106	0x3c92cd8b	0.017920276
107	0x3c1cd81a	0.009573007
108	0x3b091c8b	0.0020921554
109	0xbcde24ee	-0.027117219
110	0xbbaf404f	-0.0053482424
111	0x3a63376f	0.0008667623
112	0xbcd47cfc	-0.025938503
113	0xbbf050fc	-0.007333873
114	0xbca5019d	-0.02014237
115	0x3c01a6f6	0.007913342
116	0xbd103e8a	-0.035215892
117	0xbd080c4f	-0.033214863
118	0xbca1e695	-0.01976327
119	0x3ba99dec	0.0051762965
120	0xbc64cabf	-0.013964354
121	0x3bbba70a	0.0057266997
122	0xbb8f6522	-0.0043760696
123	0x3c143ba3	0.009047422
124	0xbd1ce5fe	-0.038305275
125	0xbc97740e	-0.018487956
126	0xbc8328cf	-0.01601067
127	0xbb8ecfc6	-0.0043582646
128	0xbd1cbc94	-0.03826578
129	0xb890a56e	-6.897269e-05
130	0xbc2581cd	-0.010101748
131	0xbcf7536e	-0.03019115
132	0x3ae250b6	0.0017266485
133	0xbcc6cdcf	-0.024268059
134	0x3bc6e5ab	0.006069859
135	0xbcc58adc	-0.024114065
136	0x3ca8ebef	0.020620314
137	0x3c768976	0.015047422
138	0xbc3b4796	-0.011430642
139	0x3c93fbee	0.018064465
140	0xbd0661f4	-0.03280826
141	0xbc1b7806	-0.009489065
142	0x3a8d54dc	0.0010782736
143	0xbb58b264	-0.0033065313
144	0x3c91bfed	0.017791713
145	0x3b0b2025	0.0021228876
146	0xbbd0eba0	-0.006375745
147	0x3caab7e5	0.02083964
148	0xbd048f91	-0.032363478
149	0x3d08a1ff	0.033357617
150	0x3c02cbc1	0.007983149
151	0xbc87333e	-0.016503926
152	0xbc5189c5	-0.0127891945
153	0xbc0ba600	-0.008523464
154	0xbb4722db	-0.0030385766
155	0xbc01eeaa	-0.007930437
156	0xbb930adf	-0.00448738
157	0x3cd11d90	0.025526792
158	0x3c666e3b	0.014064367
159	0xbc874686	-0.01651312
160	0xbc80cc02	-0.015722279
161	0xbc1b17ef	-0.009466155
162	0x3c213bae	0.009840889
163	0xbc1c801c	-0.009552028
164	0xbce25573	-0.027628636
165	0x3b0d013a	0.0021515624
166	0xbd1526c0	-0.036413908
167	0xbc521a0a	-0.012823591
168	0xbcc197a8	-0.023631886
169	0xbd171e84	-0.036894336
170	0x3b933638	0.0044925474
171	0x3c5ef40e	0.013607992
172	0xbc618e55	-0.013766845
173	0x3c0fd717	0.008779309
174	0xbb4555ab	-0.0030110877
175	0xbc5d1c75	-0.013495554
176	0xbbfdf578	-0.0077502094
177	0xbd035360	-0.032061934
178	0xbcc83115	-0.024437467
179	0xbcf17226	-0.029473376
180	0x3b0c1578	0.00213751
181	0xbc8a3f83	-0.016875988
182	0xbc4aad71	-0.012370453
183	0x3c44f97c	0.012022372
184	0xbc50d0b4	-0.012745071
185	0xbbb429a3	-0.0054981275
186	0xbadb69d6	-0.0016739916
187	0xbcdd846c	-0.027040683
188	0x3cfa2fa4	0.030540295
189	0xbcb740fb	-0.022369852
190	0x3c91849a	0.017763425
191	0x3bff9afc	0.007800458
192	0xbcca2f13	-0.02468065
193	0x3c3598be	0.01108378
194	0xbbbfc2b4	-0.005852068
195	0x3c6fa437	0.014626554
196	0x3cb496a3	0.022044485
197	0xbbd83bf3	-0.0065989434
198	0x3c3fffac	0.011718672
199	0x3ce71fcc	0.028213404
200	0xbbeebc73	-0.0072856485
201	0x3c87e3f2	0.016588185
202	0xbd12c9b0	-0.035836875
203	0x3cb55cdc	0.022139005
204	0xbc814c6d	-0.015783513
205	0xbc479a06	-0.012182718
206	0xbc5b3f92	-0.013381856
207	0xbc923916	-0.017849486
208	0xbcf348b3	-0.029697752
209	0xbca496cb	-0.020091435
210	0xbc6bda42	-0.014395298
211	0x3cc54110	0.024078876
212	0x3c8ecdf6	0.017432194
213	0xbb78379a	-0.0037874938
214	0x3c2ec11f	0.010666161
215	0xbd2cc37d	-0.04217862
216	0xbce28eea	-0.027656037
217	0xbc9a8a0b	-0.018864652
218	0xbc8e47b0	-0.017368168
219	0xbc34dab9	-0.011038476
220	0xbcd6f0ad	-0.02623781
221	0xbc750bce	-0.014956428
222	0xbd059541	-0.032613043
223	0xbcd78674	-0.02630923
224	0xbbb727cc	-0.005589461
225	0x38a36555	7.79132e-05
226	0x3a9dd364	0.0012041149
227	0xbbb74782	-0.005593241
228	0xbb5ba623	-0.0033515773
229	0x3c50456e	0.012711866
230	0xbcb98c3f	-0.022649882
231	0x3ccb76da	0.024836946
232	0xbcd4afeb	-0.02596279
233	0x3b75bfd7	0.0037498379
234	0xbc460409	-0.012085923
235	0x3c408a32	0.011751698
236	0x3c8c20b8	0.017105445
237	0x3b598b65	0.0033194658
238	0xbcc91a4b	-0.02454867
239	0x3beabaf9	0.007163402
240	0x3c800204	0.015625961
241	0xbc5e1b28	-0.013556279
242	0x3c8b24af	0.016985266
243	0xbc9f45cd	-0.019442463
244	0xbd13f1bb	-0.036119204
245	0xbc582e2e	-0.013194604
246	0x3b5bd2ce	0.0033542397
247	0x3cb6218d	0.022232795
248	0xbbe34aff	-0.0069364305
249	0x3b8a7fb0	0.0042266473
250	0xbb668e7c	-0.0035180142
251	0x3cabc8c1	0.02096975
252	0xbc509870	-0.012731656
253	0xbcec8a6e	-0.028874602
254	0xbbaa3bb8	-0.0051951073
255	0x3cd5db13	0.02610544

fc1.bias f4 [128]
0	0xbcdcffb1	-0.026977392
1	0x3ca711b7	0.02039419
2	0xbc5e9860	-0.013586134
3	0xbd12e82a	-0.03586594
4	0xbd105b40	-0.035243273
5	0xbc96a4f9	-0.018389212
6	0xbca2beca	-0.019866366
7	0x3cc6deb2	0.024276111
8	0xbcb25880	-0.021770716
9	0x3c15f0a8	0.009151615
10	0xbcb12b20	-0.021627009
11	0x3c99068c	0.01867988
12	0xbd012fc2	-0.031539686
13	0xbcbcd4e5	-0.023050735
14	0xbbce178b	-0.0062894276
15	0x3c801ad7	0.015637798
16	0x3d452e47	0.048139837
17	0xbc208955	-0.0097983675
18	0x3d11d0c5	0.03559949
19	0x3c91ca64	0.017796703
20	0x3d029ea9	0.03188959
21	0x3ca60904	0.02026797
22	0x3c1d89a8	0.009615339
23	0xbb8a30e9	-0.0042172563
24	0x3ca50807	0.02014543
25	0x3ce3452b	0.027742943
26	0xbcc5fbc6	-0.024167906
27	0x3c81ea40	0.01585877
28	0x3be46eed	0.006971231
29	0x3b502b28	0.0031764004
30	0x3be3fc4e	0.0069575673
31	0x3d11e59a	0.035619356
32	0x3ba43421	0.005011097
33	0xbcf10856	-0.02942292
34	0x3ce9710c	0.028496288
35	0xbd2b8e7a	-0.041883923
36	0x3cad6c5b	0.021169832
37	0x3c2dba42	0.010603489
38	0xbad27f91	-0.0016059746
39	0x3d304be4	0.043041125
40	0xbab1db27	-0.0013569341
41	0x3bd2bcbb	0.00643119
42	0xbc0653df	-0.008198707
43	0xbc812a26	-0.015767168
44	0x3c5415ac	0.01294462
45	0xbca1c1cc	-0.01974573
46	0xbc8627f4	-0.016376473
47	0x3c9cd453	0.019144213
48	0xbcac5dbb	-0.021040788
49	0x3c6b52c6	0.014362996
50	0x3d44433c	0.047915682
51	0x3b94f3f9	0.0045456854
52	0x3d49a62b	0.049230736
53	0xbc5acb5a	-0.013354147
54	0xbcc1d3f4	-0.023660637
55	0x3c3349ca	0.010942886
56	0x3d039688	0.03212598
57	0x3cb58aec	0.02216097
58	0x3ba95f2d	0.0051688165
59	0xbc04376c	-0.008069854
60	0x3cc3a1ca	0.023880858
61	0x3ca5c27b	0.020234337
62	0x3c40ed93	0.011775392
63	0x3c6ed645	0.014577453
64	0xbc7cc1b3	-0.015427041
65	0x3ce27a65	0.027646253
66	0xbd018821	-0.031623963
67	0x3c15e220	0.009148151
68	0x3d1feffc	0.039047226
69	0x3d165753	0.036704373
70	0x3c28cc16	0.010302564
71	0x3cca2ff8	0.024681076
72	0xbce6a00d	-0.02815249
73	0xbd3e8e88	-0.046522647
74	0x3b6c820f	0.0036088263
75	0xbbf52b7d	-0.007481991
76	0x3b98e3f9	0.0046658483
77	0x3da165e0	0.07880759
78	0xbc53176f	-0.012884005
79	0xbc9ef418	-0.019403502
80	0xbc44bbf7	-0.012007705
81	0xbc9154a4	-0.017740555
82	0x3bb573ef	0.005537502
83	0xbd0d17a9	-0.034446392
84	0xbb944695	-0.0045250156
85	0xbba1e025	-0.00494005
86	0xbccfdf74	-0.025375105
87	0xbb5f689b	-0.003408945
88	0xbcb7d6b1	-0.02244124
89	0xbd483d6a	-0.048886694
90	0x3bad1ddc	0.0052831005
91	0x3c0cf9b4	0.008604456
92	0x3c8dea74	0.01732371
93	0xbb61d372	-0.0034458307
94	0x3b99bdd2	0.004691818
95	0x3d4e4e6f	0.05036777
96	0xbbad920f	-0.0052969526
97	0xbb8c5ea3	-0.0042837425
98	0xbcf15ca7	-0.029463125
99	0xbc1bad68	-0.0095017925
100	0xbbc67cb7	-0.0060573476
101	0x3c04d15b	0.008106555
102	0x3d25df58	0.0404962
103	0xbcb6ea15	-0.022328416
104	0x3d105e03	0.035245907
105	0x3c0137dd	0.007886854
106	0xbb9c5064	-0.0047703255
107	0x3c2df23e	0.010616837
108	0xbb67ab9c	-0.003535009
109	0xbc312a31	-0.010813282
110	0x3ce8fbad	0.02844032
111	0x3cad55e7	0.021159125
112	0x3cc53ec2	0.024077777
113	0xbc1bd9c2	-0.009512367
114	0x3b76d52d	0.0037663684
115	0xbc234dc1	-0.009967268
116	0x3b0cd0fc	0.002148687
117	0x3c573a17	0.013136408
118	0xbbcc7ed6	-0.006240706
119	0xbce5edc1	-0.028067471
120	0xbccaba17	-0.024746938
121	0xbd1b18bd	-0.03786539
122	0xbc9a3eaa	-0.018828709
123	0xbc8aa244	-0.016923077
124	0xbc68d349	-0.014210531
125	0xb9d7d920	-0.00041169766
126	0xbcf7ba45	-0.030240187
127	0x3d0e9523	0.034810197

fc2.weight f4 [10, 128]
0	0xbd1dcf21	-0.03852761
1	0x3d23753e	0.039906733
2	0x3d71047d	0.05884217
3	0xbe8bbf65	-0.2729446
4	0x3de63dbf	0.11242246
5	0xbd820112	-0.063478604
6	0xbeac0841	-0.33600047
7	0x3da45855	0.080246605
8	0x3cded740	0.027202249
9	0xbd9b5107	-0.07583814
10	0xbe2fa5ae	-0.17153046
11	0xbd958a50	-0.07301772
12	0x3d362d5d	0.044476856
13	0xbcd5d5ae	-0.026102867
14	0xbda92371	-0.08258713
15	0xbdee6a26	-0.1164134
16	0x3e03cde6	0.12871513
17	0xbdd18ec3	-0.10232308
18	0xbde97138	-0.11398548
19	0x3d0b7810	0.034050047
20	0xbd827a69	-0.06371004
21	0xbdbf426b	-0.0933884
22	0xbe1002c4	-0.14063555
23	0xbdd690ef	-0.10476863
24	0x3dd1cb25	0.10243825
25	0xbde7d8ff	-0.113206856
26	0xbd0f14dd	-0.034932006
27	0x3c82c2fa	0.015962113
28	0xbc8a44de	-0.016878542
29	0xbd13f9b1	-0.036126796
30	0xbd3f69a9	-0.046731625
31	0x3db899e8	0.0901373
32	0xbab99744	-0.001415946
33	0xbe83a4c8	-0.25711656
34	0xbe7e6750	-0.24844098
35	0xbe0b854b	-0.13625066
36	0x3d858a82	0.06520559
37	0x3e156292	0.14588383
38	0xbbc1deb3	-0.0059164404
39	0x3d984a36	0.074360296
40	0xbcc95d9f	-0.024580775
41	0x3da70d0e	0.08156787
42	0x3e0500d6	0.129886
43	0xbd8a36d3	-0.06748738
44	0x3cdc6931	0.026905628
45	0x3d8844fa	0.06653781
46	0xbd8cd506	-0.068765685
47	0x3d69629f	0.056978818
48	0xbd76c245	-0.060243864
49	0xbda1ca47	-0.078999095
50	0x3c7f4851	0.015581206
51	0x3d1d2162	0.038361914
52	0x3e079db5	0.13243754
53	0xbe1c494e	-0.15262339
54	0x3c38396c	0.011244159
55	0x3dc15aa9	0.0944112
56	0x3c17722c	0.009243529
57	0xbdaa03df	-0.083015196
58	0xbdb255f3	-0.087078
59	0x3e2bccb1	0.16777302
60	0x3d80a4f1	0.0628146
61	0xbdab0857	-0.083512
62	0x3d56d66a	0.052450575
63	0x3de9dc4a	0.1141897
64	0x3c157434	0.009121943
65	0x3db9fbb8	0.09081215
66	0x3d8ec476	0.06971066
67	0xbdaa0f84	-0.083037406
68	0x3e01d797	0.12679897
69	0x3df4a507	0.11945539
70	0xbe3f4013	-0.18676786
71	0x3e08e7fa	0.13369742
72	0xbd50aca7	-0.050945904
73	0xbd24444a	-0.040104188
74	0x3d465675	0.048422296
75	0xbe98537d	-0.29751197
76	0x3e0b05e9	0.13576473
77	0x3dea0555	0.11426798
78	0xbe56cf06	-0.2097741
79	0x3d3b57cb	0.045738023
80	0x3d2a4869	0.041572962
81	0x3b0b6757	0.0021271312
82	0x3d17e87c	0.03708695
83	0xbe3d1740	-0.184659
84	0x3d43a97b	0.04776905
85	0x3de770c1	0.11300803
86	0xbd9566ee	-0.07295023
87	0xbd8f54dc	-0.069986075
88	0xbca3bd4b	-0.019987723
89	0xbe1f492c	-0.15555257
90	0x3d552409	0.05203632
91	0xbd1a3a57	-0.037653293
92	0x3d79cf65	0.060988802
93	0xbd6f0c7a	-0.058361508
94	0xbe51ff83	-0.20507626
95	0x3dc09e6b	0.09405216
96	0x3df2ff13	0.11865058
97	0xbcc6c2f0	-0.024262875
98	0x3cfde929	0.030994968
99	0xbcb195d5	-0.02167789
100	0xbd95eef0	-0.07320964
101	0x3b139513	0.0022519275
102	0x3cd5f9a0	0.026120007
103	0xbcfc29cc	-0.030781649
104	0x3daa32ba	0.083104566
105	0x3dae3d53	0.085077904
106	0xbe327ca0	-0.17430353
107	0xbd3a0faf	-0.045425113
108	0x3d9ad68f	0.07560455
109	0xbcf06941	-0.029347064
110	0x3e102618	0.14077032
111	0xbd608c99	-0.054821584
112	0x3df8ca4f	0.12147962
113	0xbccb40ab	-0.02481111
114	0xbd6d5f77	-0.05795237
115	0x3c2e9053	0.010654527
116	0x3e12ae7b	0.14324372
117	0x3c58941a	0.013218904
118	0xbd74ce64	-0.059767142
119	0xbd16223c	-0.036653742
120	0x3cf65f8c	0.030074857
121	0xbda07a6a	-0.07835849
122	0x3d8de5fb	0.06928631
123	0x3d5090cc	0.05091934
124	0xbe179da5	-0.1480623
125	0x3cd0b59d	0.025477225
126	0x3c8a2d27	0.016867233
127	0xbe45ac58	-0.19304025
128	0xbabf66d1	-0.0014602785
129	0xbd442603	-0.047887813
130	0xbdcff013	-0.101532124
131	0x3e39dcc6	0.18150625
132	0x3c9a84fe	0.018862244
133	0xbe3b0846	-0.18264875
134	0x3d328ff4	0.043594316
135	0xbe107b76	-0.14109597
136	0xbd2aa89a	-0.041664697
137	0x3cc96970	0.02458641
138	0xbea51fd3	-0.32250842
139	0xbd1c1870	-0.038109243
140	0x3d889aa6	0.06670122
141	0xbdcee3c6	-0.10102038
142	0xbe485bfc	-0.19566339
143	0xbe3fd12d	-0.18732138
144	0xbe2565b4	-0.16152078
145	0x3e217acd	0.15769501
146	0xbd80d992	-0.06291498
147	0xbd146c2b	-0.03623597
148	0x3dedf79b	0.116194926
149	0x3d8a8f24	0.06765583
150	0x3e12659c	0.14296573
151	0x3e0ac5ba	0.13551989
152	0xbdddbf27	-0.10827475
153	0xbd47659c	-0.048680887
154	0x3d9395f7	0.07206338
155	0xbdd31e65	-0.10308532
156	0x3dc4dadb	0.09612056
157	0xbd252262	-0.040315993
158	0x3d3f445d	0.046696056
159	0x3a0aca37	0.00052944146
160	0x3b9d6aba	0.0048039826
161	0x3d2761a8	0.040864617
162	0x3dfd8710	0.12379277
163	0xbe2c60ae	-0.16833755
164	0xbe78a3fb	-0.24281304
165	0x3d4e6c3e	0.050396197
166	0x3d94d876	0.07267849
167	0xbdac829e	-0.08423351
168	0x3a950e18	0.0011371998
169	0x3e0c4184	0.13696867
170	0xbe2c4d9d	-0.16826482
171	0xbb19087c	-0.0023351004
172	0xbc1aa65a	-0.009439075
173	0x3c1fd87b	0.009756203
174	0xbd324748	-0.04352501
175	0x3e236990	0.15958238
176	0xbe392dd2	-0.18083885
177	0xbd638132	-0.055543132
178	0xbe6da463	-0.2320724
179	0xbd4c156e	-0.049825124
180	0x3dc7ac45	0.09749655
181	0x3d7930da	0.060837604
182	0x3dc72759	0.09724302
183	0xbd666373	-0.056247186
184	0xbd7dda3d	-0.061975706
185	0x3d25445f	0.040348407
186	0xbdc38f37	-0.095488004
187	0xbcd6f30f	-0.026238946
188	0xbdb89a10	-0.0901376
189	0xbd49dd57	-0.04928335
190	0x3d10250d	0.035191584
191	0x3c63715e	0.013882009
192	0xbdb22e88	-0.087002814
193	0xbdcdf847	-0.10057121
194	0xbc22350c	-0.009900343
195	0xbc748301	-0.014923812
196	0x3d541ebf	0.051787134
197	0xbd86c420	-0.065803766
198	0x3de31369	0.110876866
199	0x3cfc1259	0.030770468
200	0x3caa445b	0.020784548
201	0xbd1b27b5	-0.037879664
202	0xbc87b3b8	-0.016565189
203	0x3e00fc66	0.12596282
204	0x3d9b2559	0.07575483
205	0xbd9426bb	-0.0723395
206	0x3c4005f4	0.011720169
207	0x3bbc6f38	0.005750563
208	0x3de992e7	0.114049725
209	0xbd8f0165	-0.06982688
210	0xbc185941	-0.009298624
211	0xbe82c8dd	-0.25543872
212	0x3db0565d	0.086102225
213	0xbe8d3d15	-0.27585664
214	0xbd027167	-0.03184643
215	0xbc3f2187	-0.011665708
216	0xbd61f04b	-0.0551608
217	0xbdc8cb50	-0.09804404
218	0x3d2e9834	0.04262562
219	0x3dc5fb01	0.09667016
220	0xbd420b00	-0.04737377
221	0xbcb34e2c	-0.021887861
222	0x3dce4e66	0.10073547
223	0x3e2835ba	0.16426745
224	0x3e08c61f	0.13356827
225	0x3d505118	0.050858587
226	0x3a974739	0.0011541612
227	0xbc2b3726	-0.01045016
228	0x3bdfb25d	0.0068266825
229	0xbda88193	-0.08227839
230	0x3d4cd7a5	0.050010342
231	0xbc89220a	-0.016739864
232	0x3e10646c	0.14100808
233	0xbda17cb7	-0.078851156
234	0x3e16e67c	0.1473636
235	0xbd9524c1	-0.07282401
236	0xbd7503cf	-0.059818085
237	0xba068d9d	-0.00051327964
238	0x3d3500a7	0.044190075
239	0xbdca61a2	-0.09881903
240	0x3e1141e8	0.14185297
241	0x3e134cc3	0.14384751
242	0xbdc6670e	-0.09687625
243	0xbdeddd6a	-0.11614497
244	0x3d49af01	0.049239162
245	0x3d1ebc2b	0.03875367
246	0xbc90a757	-0.017657919
247	0xbdb15b21	-0.086599596
248	0x3e274625	0.16335352
249	0x3cccdb40	0.02500689
250	0x3c8d147f	0.017221687
251	0xbea39707	-0.31951162
252	0x3e0da123	0.13831
253	0xbcc2b0bf	-0.02376592
254	0xbc9787e0	-0.018497407
255	0x3e09221d	0.1339192

fc2.bias f4 [10]
0	0xbbe1b70f	-0.0068882774
1	0xbcf910b3	-0.03040347
2	0xbde43476	-0.11142819
3	0x3d10b22f	0.03532618
4	0x3b096fb8	0.002097113
5	0x3c81ea35	0.015858749
6	0xbd4bcbc4	-0.049754873
7	0x3c90c447	0.017671717
8	0x3dc493f7	0.095985346
9	0x3d8f2578	0.069895685
