mnist_model.pth (torch, 409264 bytes, 4 tensors)

network.1.weight f4 [128, 784]
000000 13 03 c7 3b d1 6c d8 3c 1e f7 8f 3c e5 ae bf bc
       0.0060733645 0.026419075 0.01757389 -0.023398826
000010 bc 3e 45 3c a3 4e c2 bc 9c 0a 88 bb 53 52 2f 3c
       0.012038883 -0.023719138 -0.0041516554 0.01070078
000020 7e 9f 85 bc 43 09 f3 bc 5c 45 5d bc 33 10 66 3c
       -0.016311403 -0.029667502 -0.013505306 0.014041948
000030 3a ce ce bc b7 c9 d4 3b 4a 78 53 3c 78 b7 db bb
       -0.02524482 0.006493773 0.012907097 -0.006705221
000040 3f d7 0a 3d de cc b0 3c 13 25 50 bb 8e 92 eb 3c
       0.03389668 0.021582063 -0.003176038 0.028756406
000050 ee 77 1c bc 1c 7e 9d bc b5 3d 10 3d aa 6a 13 bc
       -0.009550078 -0.019225173 0.0352151 -0.008997599
000060 75 95 d7 bc d3 54 ba 3c 8e f2 b4 bc 58 32 ff bc
       -0.026316384 0.022745525 -0.022088315 -0.031151935
000070 c5 ed c9 3c 93 0b 01 bc 78 41 f7 bb 8e 0c f8 3c
       0.02464951 -0.007876295 -0.0075456463 0.030279424
000080 13 53 91 3c 3c ae 05 3d 85 f6 17 bd 04 b7 90 bd
       0.017739808 0.032636866 -0.037100334 -0.070661575
000090 5e 4e e7 bd 0a 1f e4 bd b4 f9 b6 bd a1 67 e3 bc
       -0.11294244 -0.11138733 -0.08934346 -0.027759375
0000a0 87 51 79 bd 9d f1 56 bd 6c 01 76 3d 9b d0 e8 3d
       -0.060868766 -0.052476514 0.06005995 0.11367913
0000b0 04 e5 a9 3b 20 10 13 bd 96 5c b8 bd 9e b7 0b bd
       0.0051847715 -0.03590405 -0.09002034 -0.034110658
0000c0 8d 15 3f 3a ee 11 bc 3c 10 89 8b bd f9 de 9b bd
       0.0007289283 0.022957768 -0.06813252 -0.07610888
0000d0 96 49 07 3d f3 1a 3e bc aa 6e 25 3c f0 02 94 3c
       0.03302916 -0.011603105 0.010097185 0.018067807
0000e0 53 e3 42 bc e1 a6 78 bc 3e 05 bc bc 17 1b 25 bc
       -0.011895019 -0.015176506 -0.022951718 -0.0100772595
0000f0 a4 a5 02 bd 99 27 eb bd 0e c2 ca bd 88 9d 0b be
       -0.03189625 -0.11482162 -0.09900294 -0.13634312
000100 8d da 2d bd 76 8f 4e bc 04 e1 3e bd 30 32 54 be
       -0.042444754 -0.012607446 -0.04660131 -0.2072227
000110 43 c4 4a be 90 c0 21 be c5 2a 37 be fd da 96 bd
       -0.1980143 -0.15796113 -0.17887409 -0.073659874
000120 b9 a8 ac 3c 9f 16 97 bd df 40 32 bd cf 59 9b 3c
       0.021076547 -0.073773615 -0.043518897 0.018963723
000130 8d e0 7f 3d 4b 84 ed 3b fa 65 a3 ba 58 61 98 3d
       0.062470008 0.0072484366 -0.0012466304 0.07440442
000140 3b 63 5d 3c f6 68 fa 3c 53 f2 cb bb 85 94 73 3c
       0.013512428 0.030567627 -0.0062239557 0.014866953
000150 f5 9d 94 3c 21 5d d0 bc 04 27 db 3d 82 84 f3 3d
       0.018141726 -0.025435032 0.10700801 0.11890508
000160 e0 e0 54 bd fc 98 a6 bb 2e 8d 86 bc 4e 9f 11 bc
       -0.05197227 -0.005084155 -0.016424742 -0.008888079
000170 f2 d9 0e 3e c2 a9 12 3e 59 54 04 3e fd 42 21 3c
       0.13950327 0.1432257 0.12922801 0.009842631
000180 c0 dd bb 3d 52 f6 6a 3d 5f 39 fb bd aa 0f 88 bd
       0.09173155 0.057363816 -0.12266802 -0.06643613
000190 d8 dc 2d be c2 b2 ee bd f3 bc a4 bd 7a a8 da bb
       -0.16978776 -0.11655189 -0.08043852 -0.006672916
0001a0 f0 ee 8b 3d c4 99 85 3d e7 a9 71 3d d8 4a 81 3d
       0.06832683 0.06523469 0.058999922 0.063131034
0001b0 65 2f 51 3d 58 bb 17 3e fc 23 5c 3d f7 68 50 3c
       0.05107059 0.1481756 0.053745255 0.012720338
0001c0 96 a5 02 bd c8 3e 8d ba 7d 31 b6 3d 65 6b 37 3d
       -0.031896196 -0.0010776157 0.08896158 0.044780154
0001d0 ea 36 17 3d 41 b5 af 3c 5e 71 b2 3d b7 61 43 3e
       0.036917605 0.021448733 0.08713029 0.19080244
0001e0 80 47 1d 3e 46 9b 38 3e 08 d4 13 3e 79 1c 4f 3e
       0.15359306 0.18027982 0.14436352 0.20225705
0001f0 de 39 12 3e 36 f8 88 3d b0 f6 ec 3c 97 fb 2c bb
       0.14279887 0.066879675 0.028926224 -0.0026395076
000200 61 88 f4 bc f7 37 83 bd 86 b2 57 3c 56 99 48 bd
       -0.029850187 -0.06407159 0.013165122 -0.048974358
000210 bb 1c 4e bd b3 b3 e1 bc 5f 24 da 3c d4 ad 1d 3e
       -0.05032037 -0.027551508 0.026628671 0.15398341
000220 e0 9e 31 3e f7 9d 57 3e 28 12 fa 3d 02 27 cf bc
       0.17345762 0.21056353 0.12210494 -0.025287155
000230 93 1c 64 bb 6e 94 62 3b ba e9 05 3e e5 cd 3f 3d
       -0.003480707 0.0034573334 0.13077441 0.046827216
000240 3c 1b d5 3d e0 da a2 3c 98 16 bd 3d 23 56 b4 3d
       0.10405585 0.019879758 0.09232825 0.08805492
000250 46 ea 49 3c 4a 8f 52 3d f7 17 3e 3d 06 c3 88 3d
       0.012323922 0.051406182 0.046409573 0.06677823
000260 fd 1c 2d 3d e4 9a b7 3c f4 6f 7a 3d 5b f0 98 3d
       0.042263974 0.022412725 0.061141923 0.07467719
000270 2a e0 29 3d 8b 3e 4c 3d 5c 95 30 3c 07 ec ce 3a
       0.041473545 0.049864333 0.010777798 0.0015786894
000280 3d a9 fd bb a9 ca 29 3d 55 42 8f 3d 20 bd 85 3d
       -0.007741122 0.041453037 0.06995074 0.06530213
000290 98 14 47 3e ac ec ba 3e cd cf 90 3d 61 e8 c9 39
       0.1944145 0.3650869 0.07070885 0.00038510843
0002a0 0b 98 0f bd 8a 47 53 3d 77 46 fb 3b 96 7f ed 3d
       -0.03505711 0.051581897 0.007668312 0.11596601
0002b0 11 01 ad 3d 33 31 6b 3d 71 3b af 3d 10 ce 7d 3d
       0.08447469 0.057419967 0.085562594 0.061964095
0002c0 b4 c7 15 3d ec e6 67 3d a6 f9 e7 3d 6f aa f8 3d
       0.036567405 0.05661671 0.113269135 0.12141883
0002d0 12 0f a2 3d e2 65 e9 3c 11 9b 94 3d f0 5e 60 3d
       0.07913031 0.028490964 0.07256139 0.05477804
0002e0 cc d9 6e 3d fe fa 96 3c 4e c1 12 3d 15 7f ea bc
       0.058313176 0.01843023 0.03582888 -0.02862505
0002f0 db 50 0e bd d0 b2 b7 3b a4 57 36 bc 4b 61 19 3d
       -0.03474508 0.005606033 -0.011129294 0.0374463
000300 d8 7f 05 3e 67 59 92 3e 2b 23 f8 3d 37 86 f4 3c
       0.1303705 0.28583834 0.12116083 0.029849155
000310 a6 f2 f8 bc 4b 96 01 3e e5 3d 30 be 74 05 c7 3c
       -0.030389141 0.12654988 -0.17211111 0.024294592
000320 04 fb f0 3d 22 9e c5 3d 03 2f 6a 3d 44 c8 9b 3d
       0.117666274 0.09649302 0.05717374 0.07606557
000330 1d 8a 37 3e 6b 36 5f 3d 34 a7 25 3e 78 92 6e 3d
       0.1792378 0.054495256 0.16177064 0.058245152
000340 5c 1e 80 3d eb 93 b6 3d 25 ce a5 3d 8f ff bb 3c
       0.062557906 0.08914932 0.080959596 0.022949008
000350 61 dc 35 3d 22 94 5e 3c 2d 4b 8a 3c e7 bc ea bc
       0.044399623 0.013585122 0.01688155 -0.028654529
000360 af 82 63 bd fe 6c 1b bd 0d 66 28 3c 4d 67 00 bd
       -0.05554455 -0.03794574 0.010278237 -0.031348515
000370 53 8e cb 3c f4 1a e2 3d 38 5e 90 3d 87 fd 96 3b
       0.024848139 0.11040297 0.07049221 0.0046078595
000380 30 19 8b bc e2 a6 e8 3c e7 86 e6 bd e5 55 dc bb
       -0.016979784 0.028399888 -0.11256199 -0.0067241066
000390 91 f9 48 3d 9d 77 93 3d 22 b2 93 3d a9 16 de 3d
       0.04906613 0.07200549 0.072117105 0.10844166
0003a0 d9 ab 8a 3d 30 56 cd 3d da 8b f1 3d a1 11 4d 3d
       0.067710586 0.100262046 0.11794253 0.05006564
0003b0 b7 16 b2 3d d9 e4 01 3e e4 51 f7 3d 71 1f 4b 3d
       0.08695739 0.12684955 0.12076166 0.04959053
0003c0 52 bb 11 3d 68 2b 82 bc 64 0d 55 3c 37 f7 0e bd
       0.035579033 -0.015889838 0.013003681 -0.03490373
0003d0 f5 21 21 bc 18 cb cb bd 43 0e 95 bc a7 56 dc bc
       -0.009834756 -0.099508464 -0.018195277 -0.026896788
0003e0 91 ba 84 3d d1 39 a6 3d 61 e4 36 3e ba 9a ef 3d
       0.06480897 0.08116496 0.17860557 0.116994336
0003f0 43 fe 13 bc 85 fb 04 bc ef f7 31 bd 9e 6e c3 bb
       -0.009032789 -0.008116608 -0.04344934 -0.0059641143

network.1.bias f4 [128]
000000 e5 d1 d1 bd 23 cc ad 3d 25 6f 0c be 88 27 38 3d
       -0.10245112 0.084862016 -0.13714273 0.044959575
000010 05 ad 5e 3d 44 16 4d 3d 02 98 77 bc 9b 18 f5 3d
       0.054364223 0.050070062 -0.015111925 0.11967584
000020 5c c9 c5 38 d1 a0 a5 bd e9 00 98 bd ff d1 05 3e
       9.431198e-05 -0.08087314 -0.074220486 0.13068388
000030 e3 31 fe 3c 79 91 04 bd a3 29 a2 3c 94 76 3a 3e
       0.031029647 -0.032365296 0.019795245 0.18209296
000040 54 94 12 bc 86 78 88 3d dc 7a 78 3d bc 65 d6 3d
       -0.008946497 0.06663613 0.060664043 0.10468623
000050 2c 70 1d bd 98 40 a3 3d e5 bf e0 3d 80 da 34 bd
       -0.038437054 0.07971305 0.10974101 -0.04415369
000060 ca 6e b5 bd de db bf 3d eb b3 c5 bd c6 d6 7e bd
       -0.08859022 0.09368108 -0.09653457 -0.062216543
000070 e5 cb 0a 3e a9 ad aa 3d 1c e8 f1 bd 4a ca 0b 3e
       0.13554342 0.08333904 -0.118118495 0.13651386
000080 17 eb 9b bd 43 00 0d 3d f0 f7 8d 3d 25 af 09 be
       -0.07613199 0.034424078 0.06932056 -0.13445719
000090 b4 07 ea bc 87 15 ac bc 57 2c 08 bd d0 90 a7 bd
       -0.028568126 -0.021006359 -0.03324541 -0.08181918
0000a0 df c5 2b 3e a5 7a 5e 3d d4 ec 88 bd c3 ef 94 bc
       0.167747 0.05431618 -0.066857964 -0.018180734
0000b0 1b 03 fc bb 61 38 ca bb 58 d2 0d bc 0f de 32 3e
       -0.0076908 -0.0061712717 -0.008656107 0.17467521
0000c0 d0 38 33 3e ce f5 b3 bc 9e 7e ae bc c8 94 db 3d
       0.17502141 -0.021967795 -0.02130061 0.10721737
0000d0 6b db 2a 3e b7 c1 ab 3c 90 7e 03 3e a6 70 32 3e
       0.16685264 0.020966394 0.12841249 0.17425784
0000e0 a1 ee 7a 3c cc 72 cd 3c 4d d4 28 3e 85 01 de bc
       0.015315683 0.025079153 0.16487236 -0.027100334
0000f0 9e 33 50 3d e4 cb 6d bd fe db dd 3c 16 19 75 3e
       0.050830476 -0.058055773 0.02708244 0.23935351
000100 cf 3a 63 bc 5a 50 0a bd 80 0e 6e 3e 0b b4 23 bd
       -0.0138690015 -0.033768035 0.23247719 -0.039966624
000110 f6 87 3d 3e 76 b5 85 3d 94 0c cc bd dd 03 37 be
       0.18508896 0.065287516 -0.099633366 -0.17872567
000120 00 33 91 3d 75 70 66 3e 74 41 d0 3d db 83 ab bd
       0.070898056 0.22503836 0.10168734 -0.08374759
000130 51 fa 34 bd 6b 34 ca 3d 9a a0 fc bd fc 3d 90 bd
       -0.044184033 0.09873279 -0.1233532 -0.070430726
000140 6f 14 9b bd 84 d3 cc 3d 4c 8b 87 3d 5c 33 83 bb
       -0.07572257 0.10001281 0.06618366 -0.0040039252
000150 5b 28 f5 3d 0a 88 cd 3d 52 ee 11 be 6e c9 39 bc
       0.11970588 0.10035713 -0.14251068 -0.0113395285
000160 03 c5 0e 3d e7 d8 c2 3d 88 95 a3 3b 49 81 cd bc
       0.034855854 0.09514027 0.0049921907 -0.025086062
000170 5a c2 8a 3e a9 ae 49 bd e1 1e e0 bd 96 d8 1e 3e
       0.27101403 -0.049238835 -0.1094339 0.15512308
000180 b4 7c ce 3d 4d 1e 81 3d 7f 55 77 3e 5d 45 01 3d
       0.10082379 0.063046075 0.24153708 0.03156029
000190 a4 3e 85 3c 59 13 05 3e 32 46 3d 3d 2f 5f fb bb
       0.016265221 0.12995662 0.04620952 -0.007671259
0001a0 5b 95 5e 3d 7f 5c 16 bc 7d d2 51 3e 61 3a b2 3d
       0.054341655 -0.009177326 0.20490451 0.08702541
0001b0 8e 9c 08 ba 64 40 a1 bd bf dd 81 3c 01 9c f7 3c
       -0.0005211317 -0.0787361 0.015852807 0.030225756
0001c0 09 c4 df 3c 57 53 06 be 1f 88 7d 3d 2f d5 f2 bd
       0.027315157 -0.13117729 0.061897393 -0.11857068
0001d0 93 2e 3c bd cf d4 18 3e 30 ed 5e 3e 09 0e 13 be
       -0.045942854 0.1492493 0.21770167 -0.14360823
0001e0 9c a5 8a ba b8 23 62 3e c7 0b 60 bb c9 d3 eb 3c
       -0.001057792 0.22083938 -0.0034186707 0.02878751
0001f0 38 fb 22 be df 56 d4 3d f9 11 42 3e f7 e7 9d 3d
       -0.15916145 0.10368132 0.18952169 0.077102594

network.3.weight f4 [10, 128]
000000 45 00 aa bc 8e d2 05 3c d8 f4 ee bd 63 47 e1 be
       -0.020752082 0.008167876 -0.11667794 -0.43999776
000010 36 ac 2c 3e 90 5e 28 3e 26 39 f1 be 21 2c a8 bd
       0.16862568 0.16442323 -0.47113913 -0.08211542
000020 b3 f7 1c be ac 5b 1d 3e cf 8d 12 3e a4 72 4e bd
       -0.15328865 0.15367001 0.14311908 -0.0504023
000030 9b 1f 26 be e3 46 79 3d 59 93 38 3e 5e cc c4 3d
       -0.16222994 0.06085862 0.18024959 0.096092924
000040 b1 24 c3 3d b5 bf 9a be a6 1c b9 bd ff 31 52 be
       0.09528483 -0.30224386 -0.090386674 -0.20526884
000050 3a c6 60 3c bb f3 11 3e 7e 91 94 be 08 b9 38 3d
       0.013719136 0.14253132 -0.29017252 0.045098335
000060 58 19 f4 3d 94 2c 11 3c 0a 07 92 be 54 a4 ec be
       0.119188964 0.008860726 -0.28520995 -0.46219122
000070 1d 9b 04 be 39 78 96 bc cc 03 31 3e 83 37 91 3d
       -0.12949796 -0.018367874 0.17286605 0.07090666
000080 c3 82 c3 be 6c 08 79 be 0b 52 d4 be d5 1a 1f bd
       -0.381857 -0.24319619 -0.41468844 -0.03884395
000090 f0 aa 2e 3d f5 b4 5d be b1 c4 96 be c5 a1 15 3e
       0.042643487 -0.21651061 -0.2944694 0.14612491
0000a0 7f 9e b3 bd fa ca 8e 3c 58 23 9b 3d fb 54 aa 3d
       -0.08770465 0.017430771 0.07575101 0.0831699
0000b0 f0 ed 0d 3e 4e af 5a be 52 fb 19 3e 40 ab 0a 3e
       0.13860297 -0.21355936 0.15037277 0.13541889
0000c0 69 5d 03 bf f1 94 b5 3d 9a 2a 42 be fd 0e 99 3d
       -0.5131441 0.08866299 -0.18961564 0.07473562
0000d0 0f 56 0e be be 43 8a 3e 28 af 2d be 13 74 87 3e
       -0.13900016 0.27004808 -0.16961348 0.26455745
0000e0 6e 54 d7 bd 7d d9 26 3e 31 87 92 be 42 5a db 3d
       -0.105141506 0.16293903 -0.28618768 0.10710575
0000f0 1a cd f2 be 9c ff 11 be 82 f3 29 be 26 94 fc 3d
       -0.47422105 -0.14257663 -0.16596797 0.123329446
000100 f6 1c 38 bf 35 06 ea 3d 33 ad b9 3d 31 73 d3 3d
       -0.7191919 0.11426965 0.09066238 0.103247054
000110 13 2a ac be af 10 49 bf 6b cb e6 3c 7f 84 fb 3d
       -0.3362585 -0.7854108 0.02817317 0.12281131
000120 0c fb b4 3d 05 34 03 be a8 ea 1a 3e ef b8 3b 3d
       0.08836946 -0.12812813 0.15128577 0.045830663
000130 3b 93 70 3d a1 65 41 3e 0c ec b6 3d 46 d7 1c 3e
       0.05873416 0.18886425 0.08931741 0.15316495
000140 c5 85 c1 be 23 bf e5 3d df 01 ce 3d 61 eb 53 be
       -0.3779737 0.11218097 0.10058951 -0.20695259
000150 e7 8d 1c 3e da ca 37 3d de 33 2a be 3d ef cc 3d
       0.15288506 0.04487119 -0.16621348 0.100065686
000160 7d 3e 35 3d 61 df 02 bd 4f a2 0a bd 94 87 92 3e
       0.044249047 -0.031951312 -0.033846196 0.28619063
000170 b0 6e 32 be 61 f9 2a 3e d3 d9 5f be ab 11 8a bd
       -0.17425036 0.16696693 -0.21860437 -0.06741651
000180 0a 59 59 3d ad b3 65 be 7d 8c 11 be e7 08 2a bd
       0.05306343 -0.22431822 -0.14213748 -0.041512396
000190 40 cc c0 bd e8 39 80 be b4 6d 85 be 6e 98 0a 3e
       -0.094139576 -0.2504418 -0.2606026 0.1353471
0001a0 f1 3c ec 3d 7b d3 8b be 57 57 d9 be 5d f2 2b be
       0.11535061 -0.27309784 -0.42449448 -0.16791673
0001b0 6c 36 91 3d 19 6d 00 be 11 d8 e6 bd fb f5 ec bd
       0.07090458 -0.12541617 -0.1127168 -0.115703546
0001c0 fa 64 01 3e 31 81 aa 3d 25 65 97 3d 32 94 e4 bd
       0.12636176 0.083254226 0.07392339 -0.111610785
0001d0 34 00 8c be aa b5 f8 3c ba ab 4e be 4c 07 3c 3d
       -0.27343905 0.030360062 -0.20182696 0.045905396
0001e0 c8 64 22 bd f1 46 9b be ce 0e 86 bc 58 b3 e8 3d
       -0.039646894 -0.30327561 -0.016364481 0.11362332
0001f0 7e ac ab 3d 5d 0a 8d 3c 1a 4c e4 bd 19 00 43 bd
       0.0838251 0.017216856 -0.11147328 -0.047607515
000200 04 cf 36 3e b0 0d 5a be 2a 4b c1 bd f0 33 73 3d
       0.17852408 -0.21294284 -0.094381645 0.059375703
000210 8e d7 62 3d 6e 49 01 3c 94 75 92 3d dd 7b ef bb
       0.05538135 0.007891042 0.071513325 -0.007308467
000220 67 96 8a 3d 79 3d 43 be f3 59 0c 3e 09 8c c9 bd
       0.06766968 -0.19066419 0.13706188 -0.09841163
000230 84 13 ce 3c 68 9f 75 3d 56 12 03 3d d0 36 71 39
       0.02515579 0.059966475 0.03199991 0.0002300397
000240 dc 4d ca bd 27 fb c1 bd cf 00 1f 3d 91 df 92 3d
       -0.09878132 -0.09471732 0.03881913 0.07171548
000250 ab 0f 54 be a0 73 b4 bd bc c6 8b bd ed 69 5b 3e
       -0.20709102 -0.08811116 -0.06825015 0.21427126
000260 4f bc 13 be 4c b9 ab be 90 c3 cf be ff 51 28 3e
       -0.14427303 -0.33539808 -0.4057889 0.16437529
000270 3a 55 c0 3d a3 46 5a be 91 5d 9a be ef f9 61 be
       0.09391256 -0.21316008 -0.3014951 -0.22067998
000280 00 9e 23 3e 71 31 75 3e e0 ad c7 3d 3e b7 1e bd
       0.15978241 0.23944642 0.09749961 -0.038748972
000290 e9 b8 8f bd 38 f6 ab be e5 4a 87 3d 78 59 39 3e
       -0.07017691 -0.33586287 0.06606082 0.18100536
0002a0 04 46 37 3d ee fc 10 be 13 24 7d be 1a ee cc be
       0.044744506 -0.14158985 -0.24720792 -0.40025407
0002b0 9b ad 2c 3e 38 fb 6f 3d 85 56 92 bd ea 5c a2 be
       0.168631 0.05858919 -0.071454085 -0.31711513
0002c0 38 f8 ea bb 6b a8 20 be a3 69 ba bd d3 18 40 3e
       -0.0071707033 -0.15689246 -0.0910218 0.1875947
0002d0 dc 64 ec 3d da 29 e0 be a8 54 ea 3d 1c bf 64 3e
       0.11542675 -0.4378193 0.11441928 0.22338527
0002e0 7a fd 24 3b fb 47 25 3e 01 32 0b 3f b8 4e 81 be
       0.0025175498 0.1614074 0.54373175 -0.2525537
0002f0 5c 62 e7 3d 5f 26 42 bd 47 ea 26 be cf 17 f8 3d
       0.112980574 -0.047399875 -0.16300307 0.12113916
000300 54 13 17 3c 7c 6c 9d be 60 08 05 3e a9 a0 03 be
       0.009220917 -0.3074683 0.12991476 -0.12854256
000310 2a 5b 34 3e 14 b6 ef 3c 14 a6 2a 3d b1 75 65 be
       0.17612901 0.029261626 0.04166229 -0.22408177
000320 dc 23 90 be fc f4 85 be 86 90 91 3e 49 03 1d be
       -0.2815236 -0.2616347 0.28430575 -0.15333284
000330 00 0b 72 be a3 89 b0 3e e9 c7 ed 3b 6e 33 98 3d
       -0.23637009 0.34480008 0.007256497 0.074316844
000340 d7 e0 46 3e 2f d8 dc bc 8f 98 94 be af 2e 20 bd
       0.19421707 -0.026958553 -0.29022643 -0.03910702
000350 c7 11 9c bd bf 5d bf be 4b e4 16 be 51 c1 92 3e
       -0.07620578 -0.3737621 -0.14735524 0.28663114
000360 fa 59 5c 3e f1 d2 8b 3e 05 d6 3e 3d e5 98 59 3e
       0.21518698 0.27309373 0.046590824 0.21249731
000370 2f f7 36 be 44 0d 12 be 26 ca 0d 3e 7b c6 cc 3d
       -0.1786773 -0.14262873 0.13846645 0.09998795
000380 47 d1 53 be 6b 4a 0d 3e b0 9a 6a be 1a 07 18 be
       -0.20685302 0.1379792 -0.22910571 -0.14846459
000390 7c 8c 0d bd f2 0a 8a 3c ba 8b c1 3d 22 14 4c 3e
       -0.034557804 0.016850922 0.09450479 0.19929555
0003a0 e3 54 bc be e9 e5 0d 3e ed 82 ae 3d f3 b5 ee 3e
       -0.36783513 0.13857235 0.08521066 0.4662319
0003b0 24 0d 12 be 97 58 04 3e f1 6e 6d be 6e 30 82 bc
       -0.14262825 0.1292442 -0.23186852 -0.015892234
0003c0 6e cd 38 3d 75 f3 29 3d 44 b4 73 3d 20 ac ea 3d
       0.045117788 0.041491944 0.059498087 0.114586115
0003d0 b4 eb c5 3e 60 c6 bb 3d 82 ce 44 be 12 22 fa be
       0.3865639 0.091686964 -0.19219401 -0.4885412
0003e0 80 08 a4 bc ac 15 0c be 8a 4e 71 be dc b0 fd bd
       -0.020023584 -0.13680142 -0.23565117 -0.12387249
0003f0 8f b0 8f bd e8 ce ba 3d b9 ac 58 3d 81 95 8d 3e
       -0.07016098 0.091214955 0.052899096 0.27653125

network.3.bias f4 [10]
000000 26 4a bf bd 96 70 85 bb 4e 45 49 3c 1c f2 5a be
       -0.093403146 -0.004072259 0.01228459 -0.2138142
000010 a0 95 b8 3d e5 24 dd 3d a7 1f e1 3c 55 bc d1 3d
       0.09012914 0.10798053 0.027480913 0.102409996
000020 13 4b b7 bd 4b 58 cb 3b
       -0.08949866 0.0062055937
